Deep_Neural_Networks(GPU)/mnist-feedforward.pth (torch, 103567 bytes, 4 tensors)

linear1.weight f4 [32, 784]
000000 40 16 21 bc a5 73 bb bc 8c 5b ce 3c d8 39 c3 3c
       -0.009831965 -0.022882292 0.025190137 0.023831293
000010 44 55 31 3c 80 c8 43 3c 54 14 33 3c 9a ab 92 bc
       0.010823552 0.011949658 0.01093014 -0.017904092
000020 1c 42 fb bb 00 33 82 3a b4 bc 5e 3c fb d3 03 3d
       -0.007667793 0.0009933412 0.013594795 0.032184582
000030 5e 65 29 bb a1 66 06 3d 99 eb bd bc 39 34 de bc
       -0.0025847773 0.03281272 -0.02318363 -0.027124511
000040 e0 d1 11 bb 60 ec 4b 3c c2 5d ed 3c de 7d cd 3c
       -0.002225034 0.012446493 0.028975371 0.025084432
000050 66 65 9a 3c fc 76 3a bc a4 7b 1c 3c c0 07 d1 bc
       0.018847179 -0.011380907 0.009550963 -0.02551639
000060 0c d0 c1 bc 30 9d 3f 3b 58 99 b0 bc 20 f3 79 3c
       -0.023658775 0.0029237978 -0.021557495 0.015255719
000070 3a a0 db 3c d0 01 81 bc 5a 9d b6 3c 38 06 ff bc
       0.0268098 -0.015747935 0.022291828 -0.031130895
000080 3c 1f 16 bc fc a4 b0 3c 35 08 6d bc d7 3d 99 bc
       -0.00916272 0.021563046 -0.014467289 -0.018706245
000090 52 87 94 ba fd 2e 03 3c 93 e1 05 bd 3d 6f 94 3c
       -0.0011331833 0.008006808 -0.032685827 0.018119449
0000a0 2c 62 96 bc ff af 03 bd bf 9e 81 3c d9 00 08 bd
       -0.018357359 -0.032150265 0.015822766 -0.033203933
0000b0 2e 69 1d 3b 8c c9 b3 3c 84 ac 3f 3c ac 14 a6 bc
       0.002401899 0.021946691 0.011698846 -0.020273529
0000c0 ec 08 0c 3d cf 90 8f bc 00 52 89 3c 8f 59 a9 bc
       0.034188196 -0.017525105 0.016762733 -0.020672588
0000d0 75 3f ed bc 8c 17 c3 bc 03 d1 e0 bc d0 7d b0 3b
       -0.028960923 -0.023814939 -0.027443415 0.005386092
0000e0 50 67 a5 3b 52 92 f3 3c dc b4 25 bc 0d 5a 9d 3c
       0.005047716 0.029732857 -0.010113921 0.019207979
0000f0 3a 78 85 bc 0a 6e b6 3c 96 a9 27 bc e2 25 b2 bc
       -0.01629268 0.022269268 -0.0102333035 -0.02174658
000100 7a ea dd 3c 39 99 04 bd 36 24 bd bc 58 bc be bc
       0.027089346 -0.032372687 -0.023088556 -0.023283169
000110 8a 72 a8 bc 30 0a d1 bc b8 e0 87 bc 3f 9e 21 3c
       -0.020562429 -0.025517553 -0.016586646 0.009864389
000120 2e 9c 24 bd ef b5 07 bd ea 21 b5 ba 5e e4 37 3c
       -0.040188007 -0.03313249 -0.0013819311 0.011223881
000130 12 ed cf bc ae 5b d0 3c 68 ec dc 39 84 f9 d1 bc
       -0.025381599 0.025434341 0.00042137806 -0.025631674
000140 37 2e 95 bc 15 b4 85 bc 30 98 a3 bb 80 31 61 3c
       -0.018210514 -0.016321221 -0.0049925074 0.013744712
000150 5a cc 83 bc 5a 9d e4 3c b0 54 24 3c 06 f7 0d bd
       -0.016088653 0.027907062 0.010029957 -0.034659408
000160 17 59 83 3c b4 9f 27 bd 2e 9e 0a bc 88 09 9d bc
       0.016033692 -0.04092379 -0.008460565 -0.019169584
000170 69 16 72 bc e3 d0 56 bd f6 ae 31 bc 9a 3f 8f bb
       -0.014775851 -0.052445304 -0.010844937 -0.0043715956
000180 85 27 13 bd f6 40 9f bd fe 94 71 bc 76 10 1e bd
       -0.03592636 -0.07776062 -0.014744995 -0.038589917
000190 47 2c 43 bc d0 f9 4c ba 07 03 15 bd 57 82 69 3c
       -0.011912412 -0.00078192074 -0.03637984 0.014252267
0001a0 92 74 de 3c f4 d0 02 3c 6e 31 27 bd 13 78 28 3c
       0.027155194 0.007984389 -0.040818624 0.010282534
0001b0 49 8d ce 3c 0b 18 cd 3b 10 2c 30 3b 28 04 a3 3b
       0.025213854 0.0062589697 0.0026881732 0.0049748607
0001c0 2e b5 d1 3c b5 6d fe bc fa 6e 31 bc ab ea de 3c
       0.025599089 -0.031058172 -0.0108296815 0.027211508
0001d0 5e 36 c0 bc 82 ae e1 bb e6 d1 13 bd bc 89 10 bd
       -0.023463424 -0.006887258 -0.036088847 -0.035287604
0001e0 10 cb 47 bd ad c6 ac bd 0b 81 c9 bd ae cd 61 bd
       -0.04877764 -0.08436332 -0.09839066 -0.055127792
0001f0 c1 13 8a bd 56 1e d5 3c 59 de 4c 3d a7 ba 24 3d
       -0.06742049 0.026015442 0.050016735 0.040217068
000200 6e f1 68 3d 6c 93 8f 3d 27 ba 9b 3d d9 36 39 3d
       0.05687087 0.0701054 0.07603865 0.045218322
000210 cf 8d 6c 3c c8 ac 55 bb 8d 0a 59 3d 30 08 85 bc
       0.014438107 -0.0032604206 0.052988578 -0.016239256
000220 be 4a df 3c 5b 2b e5 3c ad 4c 24 3c 80 b8 70 bc
       0.02725732 0.027974775 0.010028047 -0.014692426
000230 14 be 32 3c fe 8a b2 bc 98 d6 c4 bb 30 61 87 bc
       0.010909576 -0.021794792 -0.006007027 -0.016525835
000240 0d 95 7a bc 7d c8 89 bd 6e 31 97 bd 76 b2 8f bd
       -0.015294326 -0.06727693 -0.07382475 -0.070164606
000250 41 18 07 be e2 93 f3 bd a6 0c 32 bd 12 17 08 be
       -0.13192846 -0.11893441 -0.043469094 -0.1329005
000260 be 33 8d bd 98 c2 d6 3c fc 01 78 bd 47 c0 1d be
       -0.06894635 0.026215836 -0.060548767 -0.15405379
000270 7e 4b 38 be 69 64 0a be bb c6 bc bc 18 5e 29 3c
       -0.17997548 -0.13514866 -0.02304398 0.010337375
000280 4d e0 3f 3d c3 79 19 3d 5b b9 74 3d 28 e3 ce 3d
       0.04684477 0.037469637 0.05974708 0.1010192
000290 7a 5e c7 3c 9f 20 b1 bc 96 5c d9 3a 7e f9 10 bd
       0.024337042 -0.021622 0.0016583379 -0.035394184
0002a0 02 c1 f4 3c 33 36 ff bc d8 af d0 3c 4c 35 5d 3c
       0.02987719 -0.031153774 0.025474474 0.0135014765
0002b0 91 21 48 3c 57 ea b4 bb 3a 76 0a bd ad 59 a2 bd
       0.012215034 -0.0055210995 -0.033804156 -0.079272605
0002c0 9f d5 7c bd 3d 87 22 be 1a 70 e1 bd 60 f8 aa 3d
       -0.061727162 -0.15871902 -0.1100771 0.08348155
0002d0 b3 26 2a 3e 48 89 3f 3d 11 31 00 bc 74 38 39 be
       0.16616325 0.04676178 -0.007824198 -0.18087941
0002e0 c6 ea 9f be 97 c8 e9 bd 69 8a 5f bd 9b 92 c0 bc
       -0.31233805 -0.114152126 -0.054575358 -0.023507407
0002f0 33 51 01 3d 90 b6 df 3d bc 4b 07 3e 0a f2 d2 3d
       0.03157158 0.10923493 0.13212484 0.103000715
000300 ad df be 3d 21 ac 68 bb 23 b9 7d 3b 46 34 d5 bb
       0.093200065 -0.0035502987 0.0038715086 -0.0065064756
000310 98 fd 95 bc a6 21 18 3c 08 42 3b 3c 91 34 83 3d
       -0.0183094 0.009285366 0.011429317 0.064065106
000320 e4 c6 ad 3c 4b 4d 35 3d 54 b8 1f 3d ad 85 56 3d
       0.021213003 0.044263165 0.03899415 0.052373577
000330 6f a4 96 3b 18 06 06 bd da ae ce bb d8 b1 38 3e
       0.0045972387 -0.032720655 -0.006307465 0.18036592
000340 c8 c7 31 3e 1b b9 d1 3c 59 69 dc bd 48 db a3 be
       0.17361367 0.02560096 -0.10762281 -0.32003236
000350 18 40 a0 be 72 90 f8 bd f3 a6 bb 3d 24 3e b9 3d
       -0.312989 -0.12136926 0.091627024 0.090450555
000360 49 07 11 3c 40 9f 8b bd 15 1f 58 3d 7a a6 02 3e
       0.008851835 -0.06817484 0.052764017 0.12758818
000370 e0 fe 06 3e e3 9a 8f 3d a8 e1 0f 3c a1 d3 65 3c
       0.13183165 0.07011964 0.008781828 0.014027507
000380 d6 a3 05 bc fe 68 ca 3c fe 29 9b bb db c3 3a 3d
       -0.008156737 0.024708267 -0.0047352305 0.04559694
000390 31 ae 88 3c 14 7f ce 3d 7e f6 5d 3c 30 4a ca bb
       0.016684623 0.10082832 0.013547538 -0.0061733946
0003a0 7d 4c ab 3c 3c 9a a7 3d 69 dc 9e 3d b7 c7 3b 3e
       0.020910496 0.08183715 0.07756884 0.18337904
0003b0 57 1f 93 3e 8c a4 3e 3d 7f a1 86 bd 5f ce 34 be
       0.28734848 0.046543643 -0.06573772 -0.1765685
0003c0 06 43 46 be df 91 85 bd aa fc cc 3d e5 91 53 3d
       -0.19361505 -0.06521963 0.10009129 0.051652808
0003d0 1f 22 d4 3d 2e 8c c3 3c df 48 33 3e 9f 9d 80 3e
       0.103580706 0.023870554 0.17508267 0.25120255
0003e0 94 43 25 3e 70 7b ea 3d 43 02 0e 3d 6d 0f 82 bc
       0.1613906 0.11449325 0.034670126 -0.015876496
0003f0 01 00 92 3c 3c 5b c2 3c fe 81 be 3c 16 3c 52 3d
       0.017822267 0.023725145 0.023255344 0.051326834

linear1.bias f4 [32]
000000 41 77 1c 3f ae 78 44 be 87 f4 10 3e 1b ea 37 bc
       0.6111947 -0.1918666 0.1415578 -0.011225249
000010 06 78 83 3e 3e f5 30 3e 2b d4 99 3e c7 86 8e 3d
       0.25677508 0.17281052 0.30044684 0.069593005
000020 1f 98 66 3e 23 85 c1 3e a5 8d db be c5 72 0a 3e
       0.22518967 0.37796888 -0.42881504 0.13520344
000030 10 ef cc bd 16 69 06 bd 6d 62 96 3d 07 bc 09 3e
       -0.10006535 -0.03281506 0.07342992 0.13450633
000040 61 cb 91 bd ca 0c 96 3e 4c 93 78 be c1 36 f4 3d
       -0.071188696 0.29306632 -0.2427494 0.11924506
000050 b6 03 b2 3d 73 3a e0 3e b1 1d 2c 3d a5 b1 6c 3e
       0.08692114 0.43794593 0.042020503 0.23114641
000060 85 c2 9f 3d fb 64 af 3d 00 bb a9 3e b3 ad df 3d
       0.078007735 0.08564182 0.33150482 0.10921802
000070 1e d0 2e 3e 76 05 95 3d 5f 19 8d bd 10 b7 17 3e
       0.17071578 0.07276432 -0.06889605 0.14815927

linear2.weight f4 [10, 32]
000000 7f b9 cb 3e c3 12 dc 3e ca 8e ad bf 66 34 0f 3d
       0.3978996 0.42983064 -1.3559201 0.03496208
000010 d0 6f 8a 3e 96 56 e5 bc bd fd 13 3d e6 9c 10 bf
       0.2703843 -0.027995389 0.036130656 -0.5648941
000020 4b 0b 9f 3c 40 8c 3a bf 50 9c cb be 3a 0d 1b bf
       0.019414565 -0.72870255 -0.39767694 -0.6056706
000030 c9 1f 3c 3f 85 2b b6 be 87 14 dc be 3f 9e 4e 3e
       0.73486 -0.35580078 -0.4298441 0.20177554
000040 b3 88 de 3e 5f 86 19 be a2 25 e8 3e 4b 69 2f 3e
       0.43463668 -0.14992665 0.45341212 0.1713001
000050 fc 49 17 be 87 a4 4b be 31 62 ee be 3f 3f 84 3c
       -0.14774317 -0.19886981 -0.4655929 0.01614344
000060 02 19 3f bf 3a df 54 bf 67 68 de 3e 44 cd 4b 3f
       -0.74647534 -0.83153117 0.43439028 0.79610085
000070 8a 00 81 be 5b bb fc 3e 1c e2 2a 3e 7b df 35 bd
       -0.25195724 0.4936169 0.16687816 -0.04440258
000080 41 38 3d 3e 1f 1f 9f bf ec 7c 7d 3f 86 04 6b 3e
       0.1847849 -1.2431372 0.9901874 0.22950944
000090 c1 24 02 3e b1 6b c0 3c 32 80 3e bf a7 7e 31 be
       0.12709333 0.023488851 -0.7441436 -0.1733347
0000a0 a5 78 2c be a8 c5 84 3e e0 5b aa 3e 7b 85 57 3f
       -0.16842897 0.2593205 0.3327322 0.8418805
0000b0 b4 15 eb be d9 b9 29 be 19 c2 c6 3e 20 42 12 3e
       -0.45914996 -0.16574802 0.3881996 0.14283037
0000c0 5a f7 c7 bd ea 11 38 3f 7c 23 19 bf 94 97 29 bd
       -0.097639754 0.71902335 -0.5981977 -0.04140432
0000d0 5f 3c 76 3d 24 3f 27 bf a6 62 0c bf 0e cc 9e 3f
       0.060116168 -0.6533072 -0.54838026 1.2406023
0000e0 5e 37 36 3f 4a 6c 2c bf 6f 82 c4 3e 8d ae 05 be
       0.71178234 -0.67352736 0.38380763 -0.13054867
0000f0 35 e4 1d 3e e3 22 7c 3e 30 0a ae be 9a 85 ba bd
       0.15419085 0.24622683 -0.33992147 -0.09107514
000100 aa bb 77 3e cd 75 28 be 74 7f 3f 3e 6b db ac bf
       0.24192682 -0.16451187 0.18700963 -1.3504461
000110 10 9a bc 3d 78 e7 0a 3f cb 8c 6e 3e 62 1c 2c be
       0.092090726 0.54259443 0.23295896 -0.16807702
000120 bf d6 64 be 08 d4 28 bf d4 81 53 3f f2 ca b4 be
       -0.22347544 -0.65948534 0.82619977 -0.35311085
000130 7e 4a 26 be 3f aa 92 3c 4f 6f 24 3f a4 ef 41 3f
       -0.16239354 0.017903445 0.64232343 0.7575629
000140 f2 29 eb 3d 6d cb 23 bf 76 8b 7c be a0 0d 0e 3f
       0.1148261 -0.6398228 -0.24662575 0.5548954
000150 1f fe 47 be dc 9b 71 3f 86 fe 81 be af 6c d2 be
       -0.19530533 0.9437845 -0.25389498 -0.41098544
000160 52 6a 5c 3f 90 92 55 bf c3 68 9c bf d9 3f 00 3f
       0.8609973 -0.8342676 -1.2219471 0.50097424
000170 f9 81 0b 3e c8 be 5f be 23 f1 00 3f 93 7c f8 be
       0.136238 -0.21850121 0.50367945 -0.48532543
000180 af 6f e2 be f5 5c 80 3f 95 8b 57 3f 84 a5 0e be
       -0.44225833 1.0028368 0.8419736 -0.13930327
000190 73 8c 6c be 6d 0c 9c be c0 7a 01 3f 70 d0 03 be
       -0.23100452 -0.3047823 0.50577927 -0.12872481
0001a0 69 f4 82 3e 5a 7f 65 bf 40 eb 80 3f 11 5f 05 be
       0.25577095 -0.8964745 1.0071793 -0.13024546
0001b0 dc 52 08 be aa 0c 2d 3f 7f ba 41 bf 42 5a 31 be
       -0.13312858 0.6759745 -0.75675195 -0.17319587
0001c0 c4 b6 09 bf 34 5c 25 3f 04 4b 11 bf d2 d0 71 be
       -0.53794503 0.64593816 -0.5675509 -0.23614815
0001d0 eb 26 ec bd 8d 4a 4a 3d da bd 4f be 35 ca 1f bf
       -0.115308605 0.049387503 -0.20287266 -0.6241792
0001e0 ec 99 1b 3e 82 75 64 3f 28 b7 35 bd 77 b5 35 3e
       0.15195435 0.892418 -0.044364125 0.17745005
0001f0 b1 07 2e 3d 59 2a f8 be e7 33 e3 3e 62 45 93 bf
       0.042487804 -0.4846981 0.44375536 -1.1505549
000200 aa da 15 3f c2 e9 f6 be b3 ed 0b 3e a9 f4 be bd
       0.5853678 -0.48225218 0.13664894 -0.09324009
000210 01 26 cc 3e 18 6e fa 3e ee e4 a2 be ea 06 cb 3e
       0.39872745 0.4891212 -0.31815284 0.39653713
000220 ef 53 8b bf e0 98 5c 3f d1 b7 66 bf 08 8e 5c 3e
       -1.088499 0.8617077 -0.9012423 0.21538556
000230 8a cd 9e 3e 12 f2 81 bf 12 21 0c 3e 03 bb 91 bf
       0.3101619 -1.0151999 0.1368449 -1.1385196
000240 db cc bf 3e 9d 27 87 bf 8a f4 94 3e 4e 70 5b 3f
       0.3746098 -1.0558964 0.29092818 0.8571824
000250 61 db 81 be d4 7f ba be e4 79 bd 3e 65 1c 0f 3f
       -0.25362685 -0.3642565 0.37007058 0.559027
000260 fb 02 11 bf 8f 08 78 3e e4 92 d0 be f8 18 82 bf
       -0.5664517 0.24222015 -0.4073707 -1.016387
000270 2d f3 13 3f 18 ec 7c bf 91 c5 ac 3b bb af 60 3f
       0.5779293 -0.9879775 0.005272575 0.87768143
000280 a3 54 3d 3d 75 57 17 3f 14 c0 51 be 37 b4 24 3f
       0.046223294 0.59117824 -0.20483428 0.64337486
000290 00 6e 93 3e 62 e5 b3 be ec 85 77 3f 84 71 0c 3f
       0.2879486 -0.35135943 0.96688724 0.5486071
0002a0 15 d0 37 3e d9 1b 26 3e 07 a6 d6 be 69 e8 38 be
       0.17950471 0.1622156 -0.41923544 -0.18057407
0002b0 f1 e7 bf be d3 84 1c bd 72 51 71 be 6a c4 34 3f
       -0.37481645 -0.03821261 -0.23566225 0.70612204
0002c0 30 0b b3 bf ab 77 92 3f e1 50 d9 3e 3d 67 df be
       -1.3987789 1.144277 0.42444518 -0.43633452
0002d0 5e bb 44 3f f8 93 0c 3f 26 e9 54 be 87 cd 9a 3e
       0.768484 0.5491328 -0.20792064 0.3023493
0002e0 7a e3 61 be fc 77 6c 3f 31 66 76 3f 16 f3 bf be
       -0.22059432 0.9237058 0.9624968 -0.37490147
0002f0 53 d2 8d bf 84 d5 04 bd 40 f1 91 bf 6e f4 bf 3e
       -1.1079811 -0.032430187 -1.1401749 0.37491173
000300 e5 d4 92 bd e6 d7 de bd de 50 fe be 62 59 33 3f
       -0.07169513 -0.10881023 -0.49671072 0.7005826
000310 2c 48 e2 be 20 a0 27 3f ba c0 c5 bf f8 61 2b bf
       -0.44195688 0.65478706 -1.544944 -0.66946363
000320 d2 c5 c0 3e 31 2e fa be 4a 6b 50 bf 72 72 50 3d
       0.37650925 -0.48863366 -0.8141371 0.050890394
000330 cb 3e 1f 3f 0a 86 0f 3d b4 dc da 3e 69 11 1c 3f
       0.6220519 0.03503994 0.42746508 0.60964066
000340 58 af cf 3c aa da eb bc e4 dc 74 3f 5f 6b 92 bd
       0.025352165 -0.02879079 0.9564955 -0.07149386
000350 ac ec 51 be 27 e2 96 3f ff 93 45 bf 3e 00 97 be
       -0.2050044 1.1787766 -0.7717895 -0.29492372
000360 85 dc 19 3f b5 e6 f7 be c9 a8 0b 3f 85 2e c3 be
       0.6010211 -0.48418203 0.5455442 -0.3812143
000370 97 02 8a 3e f1 11 64 be 5b 2a 3a bf 1f 35 ee 3e
       0.269551 -0.22272469 -0.7272088 0.46524903
000380 0a ec 94 3f 19 35 45 bf d8 ae 08 bf 6e 4a 0d bf
       1.1634533 -0.77034146 -0.5339179 -0.55191696
000390 ad 4f a2 bd 8d 24 9d be c0 20 43 3f 6a 63 12 be
       -0.07925353 -0.3069195 0.7622185 -0.14295736
0003a0 93 b4 60 3f 29 0e 4e 3e 02 a5 16 3f 37 39 9b 3e
       0.87775534 0.20122589 0.5884553 0.3031709
0003b0 31 c6 96 bf 4e 48 1a 3f 38 20 d5 bb 37 e4 31 bf
       -1.1779233 0.6026658 -0.006504085 -0.69488853
0003c0 d6 de fe 3e 0a ed f3 3d 8c 8d 94 be 29 64 0f 3f
       0.49779385 0.11910446 -0.29014242 0.5601221
0003d0 c3 56 a7 3e ef ae c7 be d7 2f 47 be a6 ae 08 3f
       0.3268338 -0.3900065 -0.19451843 0.5339149
0003e0 f6 b6 21 3e c9 4e 82 bd 5d 93 b3 be 09 1a 73 3f
       0.1579245 -0.06362683 -0.35073367 0.949616
0003f0 0c 9a df 3e bf ab b7 bd db ed c0 3e 38 80 86 3e
       0.43672216 -0.08968305 0.3768147 0.26269698

linear2.bias f4 [10]
000000 0f 6c c4 be 54 21 69 3d 8d 64 04 be 89 2d 9e bb
       -0.38363692 0.05691655 -0.12928982 -0.0048272056
000010 e5 48 f4 3d 75 3c 74 3e c5 ec 53 be 16 b8 49 be
       0.11927966 0.23851188 -0.20695789 -0.1969913
000020 e0 05 92 bc 23 21 0e 3e
       -0.017825067 0.13879828
