Logistic_regression/mnist-logistic.pth (torch, 32511 bytes, 2 tensors)

linear.weight f4 [10, 784]
0.005870316 -0.022229303 -0.01043373 -0.021699306 0.0053592958 -0.022931674 0.030783605 0.007189054
0.030553129 0.010248769 0.03501093 0.03009228 0.02924867 0.014647293 -0.024032358 0.027199658
-0.013898306 -0.027219176 0.019919604 0.018527921 -0.032417793 0.0077591464 0.0005216114 0.03058121
-0.012653304 0.02254957 0.012508359 0.0070042163 -0.022061642 0.031851213 -0.015883213 -0.028279314
0.008679261 -0.026468948 -0.012087804 0.023796674 0.000381067 0.008119339 0.009688945 0.03418398
-0.03486562 0.018657846 -0.01706941 0.031255957 0.030306244 -0.0040710806 0.008781942 0.016362023
0.0062005823 -0.026930746 -0.03492284 0.0051883953 -0.019336855 -0.031661935 0.030795287 -0.0026305206
0.016004756 -0.0019924603 0.017288322 -0.026557824 0.0008835887 0.008462865 -0.014958687 0.0042744167
0.004450871 -0.027710335 -0.029410234 -0.02337969 0.016325232 -0.017705776 0.024927663 -0.035825774
-0.009929447 -0.010250408 -0.031291228 -0.0299621 0.016960755 0.030269844 0.020389812 0.006419936
-0.021777853 -0.029028628 0.027129415 -0.02057755 0.026353117 -0.0292568 0.003304669 0.03427894
-0.00077083136 -0.014101539 -0.013689101 0.0053968388 0.013239055 -0.025580484 -0.008616191 0.010900456
-0.00047386717 0.018323908 0.020987203 -0.023020169 -0.0063637514 -0.03251531 0.007686324 -0.031775054
-0.0048920144 0.0061133117 -0.0029911809 -0.036375914 0.010422523 -0.009028249 0.026382396 0.011877354
0.012596235 0.007519325 0.030453198 -0.008500699 -0.017445028 -0.010514284 0.03177576 -0.010545254
0.017912477 0.02120283 0.006883983 -0.040306866 -0.039190784 -0.0020374034 -0.0031290452 0.039512727
0.032692984 -0.0027025575 -0.021958841 -0.021468477 0.031085214 0.01648424 0.020090412 -0.013093437
-0.025038654 -0.032189462 0.00079230615 0.018409582 -0.013970725 -0.0073049404 0.027574781 0.027923403
-0.023759393 0.006032098 -0.016254375 -0.014409571 -0.012727952 0.00556443 -0.03119726 -0.022546386
-0.0015731804 -0.0056338497 0.03513401 0.0075455657 0.062973626 0.032753397 0.019178873 0.01045338
-0.011281183 -0.01280567 -0.043161996 0.00065538066 0.024555704 -0.0011031461 0.015654372 -0.027167795
0.0030059107 -0.017540982 -0.034319658 0.02875791 0.016490072 0.026675997 -0.03983651 -0.0050928756
-0.052433636 -0.037137747 0.012068316 0.026956052 -0.013027443 0.029635876 0.043265138 0.036225963
0.05898027 0.07452066 0.06434057 0.023340084 -0.0032184003 0.035605088 -0.015213711 -0.044145875
0.0101220505 0.016167706 -0.018773684 -0.016790181 0.009891983 0.010681298 -0.0056416397 0.030956952
-0.03654975 0.013826583 -0.024679985 -0.0022693877 -0.042099047 0.00024064505 -0.015153537 -0.032179434
0.0076201996 0.041576453 0.015250966 0.05856654 0.070150845 0.033929616 0.030867653 0.029943494
0.05667257 0.045076814 0.01662111 -0.0039296607 0.00043926953 0.011740395 -0.03485907 -0.0044708555
0.006611851 0.019541888 -0.0036879873 -0.014923293 0.019933054 0.005311452 0.00037319103 -0.00755208
0.002017625 -0.00026129457 -0.025841812 0.00546278 0.049773082 0.04826487 0.050561994 0.009450418
-0.0011997195 0.0534382 0.06825608 0.04657757 0.07925684 0.064155966 0.053428054 0.0033929143
-0.00317658 0.0059506968 -0.0029832178 -0.009561701 -0.0044678124 -0.033946805 0.010658488 0.0052212253
00000000: c85b c03b 3a1a b6bc 3cf2 2abc bec2 b1bc
00000010: 089d af3b 35db bbbc e62d fc3c 2892 eb3b
00000020: 8e4a fa3c 74ea 273c 9f67 0f3d 1684 f63c
00000030: e89a ef3c 33fb 6f3c 82df c4bc d1d1 de3c
00000040: b8b5 63bc c0fa debc 702e a33c dec7 973c
00000050: 85c8 04bd 7040 fe3b c0bc 083a 7285 fa3c
00000060: ce4f 4fbc e0b9 b83c dcef 4c3c a083 e53b
00000070: 9eba b4bc 6b76 023d 831d 82bc 05aa e7bc
00000080: 7633 0e3c 68d5 d8bc ed0b 46bc 3ef1 c23c
00000090: f2c9 c739 fa06 053c 61be 1e3c 8004 0c3d
000000a0: 41cf 0ebd 57d8 983c 26d5 8bbc 3f06 003d
000000b0: cd44 f83c b366 85bb 22e2 0f3c a609 863c
000000c0: 412e cb3b de9d dcbc 400b 0fbd 6a03 aa3b
000000d0: 5368 9ebc f2af 01bd 6646 fc3c d064 2cbb
000000e0: 681c 833c f093 02bb 3da0 8d3c cb8f d9bc
000000f0: a2a0 673a d4a7 0a3c 4815 75bc 6810 8c3b
00000100: 9dd8 913b c900 e3bc bbed f0bc c386 bfbc
00000110: 7ebc 853c b40b 91bc 1935 cc3c 0cbe 12bd
00000120: 1faf 22bc 54f1 27bc 3b2b 00bd 1473 f5bc
00000130: 48f1 8a3c 77f8 f73c 8908 a73c 545e d23b
00000140: 7867 b2bc 72cd edbc 823e de3c 4092 a8bc
00000150: 7ee2 d73c f5ab efbc 2593 583b 1368 0c3d
00000160: 9e11 4aba 240a 67bc 4048 60bc f7d7 b03b
00000170: 9fe8 583c 2a8e d1bc ed2a 0dbc d497 323c
00000180: 6071 f8b9 051c 963c 5bed ab3c cb94 bcbc
00000190: 0487 d0bb c62e 05bd 8fdd fb3b 8f26 02bd
000001a0: 314d a0bb 2d52 c83b b007 44bb e9fe 14bd
000001b0: 3bc3 2a3c 39eb 13bc e51f d83c 3c99 423c
000001c0: 7060 4e3c ab64 f63b fc78 f93c 8446 0bbc
000001d0: e0e8 8ebc 1a44 2cbc 4d27 023d 00c6 2cbc
000001e0: 30bd 923c 8fb1 ad3c 0993 e13b d018 25bd
000001f0: 8486 20bd f585 05bb ab10 4dbb 19d8 213d
00000200: 14e9 053d 641d 31bb 07e3 b3bc a9de afbc
00000210: 6ba6 fe3c f509 873c a694 a43c db85 56bc
00000220: dd1d cdbc 19d9 03bd c4b2 4f3a b1cf 963c
00000230: 78e5 64bc 485e efbb 82e4 e13c 9fbf e43c
00000240: 0fa3 c2bc e8a8 c53b e527 85bc 1f16 6cbc
00000250: e688 50bc d255 b63b 6591 ffbc 33b3 b8bc
00000260: 2d33 ceba 289c b8bb aee8 0f3d cb40 f73b
00000270: 51f8 803d 6d28 063d 031d 9d3c a744 2b3c
00000280: b6d4 38bc dfce 51bc a2ca 30bd dacd 2b3a
00000290: 0b29 c93c 7197 90ba 993d 803c ff8e debc
000002a0: d0fe 443b 1bb2 8fbc c592 0cbd b595 eb3c
000002b0: 3016 873c 9f87 da3c 9c2b 23bd 23e2 a6bb
000002c0: a7c4 56bd c01d 18bd 30ba 453c f0d2 dc3c
000002d0: 0e71 55bc f0c6 f23c c936 313d ad61 143d
000002e0: 4c95 713d 4a9e 983d fdc4 833d b433 bf3c
000002f0: cceb 52bb a4d6 113d ee42 79bc 4ed2 34bd
00000300: f5d6 253c 2372 843c 45cb 99bc 908b 89bc
00000310: fc11 223c 9c00 2f3c 81dd b8bb 6f99 fd3c
00000320: 31b5 15bd e488 623c ae2d cabc 02ba 14bb
00000330: 0d70 2cbd aa55 7c39 8a46 78bc 95ce 03bd
00000340: deb2 f93b 124c 2a3d 30df 793c 78e3 6f3d
00000350: 3fab 8f3d c8f9 0a3d 29de fc3c 0f4c f53c
00000360: 7f21 683d 77a2 383d fe28 883c 62c4 80bb
00000370: c24d e639 c95a 403c 62c8 0ebd 4180 92bb
00000380: 3aa8 d83b 4f16 a03c 29b2 71bb d480 74bc
00000390: a54a a33c b00b ae3b daa8 c339 7077 f7bb
000003a0: 213a 043b 5dfe 88b9 35b2 d3bc 1f01 b33b
000003b0: dcde 4b3d 62b1 453d 181a 4f3d edd5 1a3c
000003c0: e83f 9dba 04e2 5a3d d8c9 8b3d 1fc8 3e3d
000003d0: 6951 a23d 3464 833d 60d7 5a3d a85b 5e3b
000003e0: 2b2e 50bb 10fe c23b 1782 43bb aea8 1cbc
000003f0: ba66 92bb ce0b 0bbd f0a0 2e3c d016 ab3b

linear.bias f4 [10]
-0.056538444 0.07733337 -0.012557243 -0.036624145 0.011357411 0.04503557 0.007950515 0.0698824
-0.105583 -0.012709336
00000000: db94 67bd f560 9e3d e5bc 4dbc 3303 16bd
00000010: 6f14 3a3c 3877 383d e042 023c 811e 8f3d
00000020: e63b d8bd d23a 50bc
